{"keras_version": "2.0.8", "backend": "tensorflow", "config": {"layers": [{"inbound_nodes": [], "config": {"sparse": false, "batch_input_shape": [null, null, null, 3], "dtype": "float32", "name": "input"}, "class_name": "InputLayer", "name": "input"}, {"inbound_nodes": [[["input", 0, 0, {}]]], "config": {"kernel_size": [3, 3], "use_bias": true, "dilation_rate": [1, 1], "activity_regularizer": null, "kernel_regularizer": null, "activation": "linear", "data_format": "channels_last", "kernel_constraint": null, "filters": 16, "bias_initializer": {"config": {}, "class_name": "Zeros"}, "trainable": true, "name": "conv2d_1", "strides": [1, 1], "padding": "same", "bias_regularizer": null, "kernel_initializer": {"config": {"seed": null, "distribution": "uniform", "mode": "fan_avg", "scale": 1.0}, "class_name": "VarianceScaling"}, "bias_constraint": null}, "class_name": "Conv2D", "name": "conv2d_1"}, {"inbound_nodes": [[["conv2d_1", 0, 0, {}]]], "config": {"epsilon": 0.001, "center": true, "gamma_initializer": {"config": {}, "class_name": "Ones"}, "beta_initializer": {"config": {}, "class_name": "Zeros"}, "moving_mean_initializer": {"config": {}, "class_name": "Zeros"}, "beta_constraint": null, "momentum": 0.99, "moving_variance_initializer": {"config": {}, "class_name": "Ones"}, "gamma_constraint": null, "gamma_regularizer": null, "name": "batch_normalization_1", "beta_regularizer": null, "scale": true, "trainable": true, "axis": -1}, "class_name": "BatchNormalization", "name": "batch_normalization_1"}, {"inbound_nodes": [[["batch_normalization_1", 0, 0, {}]]], "config": {"name": "activation_1", "activation": "relu", "trainable": true}, "class_name": "Activation", "name": "activation_1"}, {"inbound_nodes": [[["activation_1", 0, 0, {}]]], "config": {"kernel_size": [3, 3], "use_bias": true, "dilation_rate": [1, 1], "activity_regularizer": null, "kernel_regularizer": null, "activation": "linear", "data_format": "channels_last", "kernel_constraint": null, "filters": 16, "bias_initializer": {"config": {}, "class_name": "Zeros"}, "trainable": true, "name": "conv2d_2", "strides": [1, 1], "padding": "same", "bias_regularizer": null, "kernel_initializer": {"config": {"seed": null, "distribution": "uniform", "mode": "fan_avg", "scale": 1.0}, "class_name": "VarianceScaling"}, "bias_constraint": null}, "class_name": "Conv2D", "name": "conv2d_2"}, {"inbound_nodes": [[["conv2d_2", 0, 0, {}]]], "config": {"epsilon": 0.001, "center": true, "gamma_initializer": {"config": {}, "class_name": "Ones"}, "beta_initializer": {"config": {}, "class_name": "Zeros"}, "moving_mean_initializer": {"config": {}, "class_name": "Zeros"}, "beta_constraint": null, "momentum": 0.99, "moving_variance_initializer": {"config": {}, "class_name": "Ones"}, "gamma_constraint": null, "gamma_regularizer": null, "name": "batch_normalization_2", "beta_regularizer": null, "scale": true, "trainable": true, "axis": -1}, "class_name": "BatchNormalization", "name": "batch_normalization_2"}, {"inbound_nodes": [[["batch_normalization_2", 0, 0, {}]]], "config": {"name": "activation_2", "activation": "relu", "trainable": true}, "class_name": "Activation", "name": "activation_2"}, {"inbound_nodes": [[["activation_2", 0, 0, {}]]], "config": {"pool_size": [2, 2], "data_format": "channels_last", "name": "max_pooling2d_1", "strides": [2, 2], "padding": "valid", "trainable": true}, "class_name": "MaxPooling2D", "name": "max_pooling2d_1"}, {"inbound_nodes": [[["max_pooling2d_1", 0, 0, {}]]], "config": {"kernel_size": [3, 3], "use_bias": true, "dilation_rate": [1, 1], "activity_regularizer": null, "kernel_regularizer": null, "activation": "linear", "data_format": "channels_last", "kernel_constraint": null, "filters": 32, "bias_initializer": {"config": {}, "class_name": "Zeros"}, "trainable": true, "name": "conv2d_3", "strides": [1, 1], "padding": "same", "bias_regularizer": null, "kernel_initializer": {"config": {"seed": null, "distribution": "uniform", "mode": "fan_avg", "scale": 1.0}, "class_name": "VarianceScaling"}, "bias_constraint": null}, "class_name": "Conv2D", "name": "conv2d_3"}, {"inbound_nodes": [[["conv2d_3", 0, 0, {}]]], "config": {"epsilon": 0.001, "center": true, "gamma_initializer": {"config": {}, "class_name": "Ones"}, "beta_initializer": {"config": {}, "class_name": "Zeros"}, "moving_mean_initializer": {"config": {}, "class_name": "Zeros"}, "beta_constraint": null, "momentum": 0.99, "moving_variance_initializer": {"config": {}, "class_name": "Ones"}, "gamma_constraint": null, "gamma_regularizer": null, "name": "batch_normalization_3", "beta_regularizer": null, "scale": true, "trainable": true, "axis": -1}, "class_name": "BatchNormalization", "name": "batch_normalization_3"}, {"inbound_nodes": [[["batch_normalization_3", 0, 0, {}]]], "config": {"name": "activation_3", "activation": "relu", "trainable": true}, "class_name": "Activation", "name": "activation_3"}, {"inbound_nodes": [[["activation_3", 0, 0, {}]]], "config": {"kernel_size": [3, 3], "use_bias": true, "dilation_rate": [1, 1], "activity_regularizer": null, "kernel_regularizer": null, "activation": "linear", "data_format": "channels_last", "kernel_constraint": null, "filters": 32, "bias_initializer": {"config": {}, "class_name": "Zeros"}, "trainable": true, "name": "conv2d_4", "strides": [1, 1], "padding": "same", "bias_regularizer": null, "kernel_initializer": {"config": {"seed": null, "distribution": "uniform", "mode": "fan_avg", "scale": 1.0}, "class_name": "VarianceScaling"}, "bias_constraint": null}, "class_name": "Conv2D", "name": "conv2d_4"}, {"inbound_nodes": [[["conv2d_4", 0, 0, {}]]], "config": {"epsilon": 0.001, "center": true, "gamma_initializer": {"config": {}, "class_name": "Ones"}, "beta_initializer": {"config": {}, "class_name": "Zeros"}, "moving_mean_initializer": {"config": {}, "class_name": "Zeros"}, "beta_constraint": null, "momentum": 0.99, "moving_variance_initializer": {"config": {}, "class_name": "Ones"}, "gamma_constraint": null, "gamma_regularizer": null, "name": "batch_normalization_4", "beta_regularizer": null, "scale": true, "trainable": true, "axis": -1}, "class_name": "BatchNormalization", "name": "batch_normalization_4"}, {"inbound_nodes": [[["batch_normalization_4", 0, 0, {}]]], "config": {"name": "activation_4", "activation": "relu", "trainable": true}, "class_name": "Activation", "name": "activation_4"}, {"inbound_nodes": [[["activation_4", 0, 0, {}]]], "config": {"kernel_size": [3, 3], "use_bias": true, "dilation_rate": [1, 1], "activity_regularizer": null, "kernel_regularizer": null, "activation": "linear", "data_format": "channels_last", "kernel_constraint": null, "filters": 32, "bias_initializer": {"config": {}, "class_name": "Zeros"}, "trainable": true, "name": "conv2d_5", "strides": [1, 1], "padding": "same", "bias_regularizer": null, "kernel_initializer": {"config": {"seed": null, "distribution": "uniform", "mode": "fan_avg", "scale": 1.0}, "class_name": "VarianceScaling"}, "bias_constraint": null}, "class_name": "Conv2D", "name": "conv2d_5"}, {"inbound_nodes": [[["conv2d_5", 0, 0, {}]]], "config": {"epsilon": 0.001, "center": true, "gamma_initializer": {"config": {}, "class_name": "Ones"}, "beta_initializer": {"config": {}, "class_name": "Zeros"}, "moving_mean_initializer": {"config": {}, "class_name": "Zeros"}, "beta_constraint": null, "momentum": 0.99, "moving_variance_initializer": {"config": {}, "class_name": "Ones"}, "gamma_constraint": null, "gamma_regularizer": null, "name": "batch_normalization_5", "beta_regularizer": null, "scale": true, "trainable": true, "axis": -1}, "class_name": "BatchNormalization", "name": "batch_normalization_5"}, {"inbound_nodes": [[["batch_normalization_5", 0, 0, {}], ["activation_3", 0, 0, {}]]], "config": {"trainable": true, "name": "add_1"}, "class_name": "Add", "name": "add_1"}, {"inbound_nodes": [[["add_1", 0, 0, {}]]], "config": {"name": "activation_5", "activation": "relu", "trainable": true}, "class_name": "Activation", "name": "activation_5"}, {"inbound_nodes": [[["activation_5", 0, 0, {}]]], "config": {"pool_size": [2, 2], "data_format": "channels_last", "name": "max_pooling2d_2", "strides": [2, 2], "padding": "valid", "trainable": true}, "class_name": "MaxPooling2D", "name": "max_pooling2d_2"}, {"inbound_nodes": [[["max_pooling2d_2", 0, 0, {}]]], "config": {"kernel_size": [3, 3], "use_bias": true, "dilation_rate": [1, 1], "activity_regularizer": null, "kernel_regularizer": null, "activation": "linear", "data_format": "channels_last", "kernel_constraint": null, "filters": 64, "bias_initializer": {"config": {}, "class_name": "Zeros"}, "trainable": true, "name": "conv2d_6", "strides": [1, 1], "padding": "same", "bias_regularizer": null, "kernel_initializer": {"config": {"seed": null, "distribution": "uniform", "mode": "fan_avg", "scale": 1.0}, "class_name": "VarianceScaling"}, "bias_constraint": null}, "class_name": "Conv2D", "name": "conv2d_6"}, {"inbound_nodes": [[["conv2d_6", 0, 0, {}]]], "config": {"epsilon": 0.001, "center": true, "gamma_initializer": {"config": {}, "class_name": "Ones"}, "beta_initializer": {"config": {}, "class_name": "Zeros"}, "moving_mean_initializer": {"config": {}, "class_name": "Zeros"}, "beta_constraint": null, "momentum": 0.99, "moving_variance_initializer": {"config": {}, "class_name": "Ones"}, "gamma_constraint": null, "gamma_regularizer": null, "name": "batch_normalization_6", "beta_regularizer": null, "scale": true, "trainable": true, "axis": -1}, "class_name": "BatchNormalization", "name": "batch_normalization_6"}, {"inbound_nodes": [[["batch_normalization_6", 0, 0, {}]]], "config": {"name": "activation_6", "activation": "relu", "trainable": true}, "class_name": "Activation", "name": "activation_6"}, {"inbound_nodes": [[["activation_6", 0, 0, {}]]], "config": {"kernel_size": [3, 3], "use_bias": true, "dilation_rate": [1, 1], "activity_regularizer": null, "kernel_regularizer": null, "activation": "linear", "data_format": "channels_last", "kernel_constraint": null, "filters": 64, "bias_initializer": {"config": {}, "class_name": "Zeros"}, "trainable": true, "name": "conv2d_7", "strides": [1, 1], "padding": "same", "bias_regularizer": null, "kernel_initializer": {"config": {"seed": null, "distribution": "uniform", "mode": "fan_avg", "scale": 1.0}, "class_name": "VarianceScaling"}, "bias_constraint": null}, "class_name": "Conv2D", "name": "conv2d_7"}, {"inbound_nodes": [[["conv2d_7", 0, 0, {}]]], "config": {"epsilon": 0.001, "center": true, "gamma_initializer": {"config": {}, "class_name": "Ones"}, "beta_initializer": {"config": {}, "class_name": "Zeros"}, "moving_mean_initializer": {"config": {}, "class_name": "Zeros"}, "beta_constraint": null, "momentum": 0.99, "moving_variance_initializer": {"config": {}, "class_name": "Ones"}, "gamma_constraint": null, "gamma_regularizer": null, "name": "batch_normalization_7", "beta_regularizer": null, "scale": true, "trainable": true, "axis": -1}, "class_name": "BatchNormalization", "name": "batch_normalization_7"}, {"inbound_nodes": [[["batch_normalization_7", 0, 0, {}]]], "config": {"name": "activation_7", "activation": "relu", "trainable": true}, "class_name": "Activation", "name": "activation_7"}, {"inbound_nodes": [[["activation_7", 0, 0, {}]]], "config": {"kernel_size": [3, 3], "use_bias": true, "dilation_rate": [1, 1], "activity_regularizer": null, "kernel_regularizer": null, "activation": "linear", "data_format": "channels_last", "kernel_constraint": null, "filters": 64, "bias_initializer": {"config": {}, "class_name": "Zeros"}, "trainable": true, "name": "conv2d_8", "strides": [1, 1], "padding": "same", "bias_regularizer": null, "kernel_initializer": {"config": {"seed": null, "distribution": "uniform", "mode": "fan_avg", "scale": 1.0}, "class_name": "VarianceScaling"}, "bias_constraint": null}, "class_name": "Conv2D", "name": "conv2d_8"}, {"inbound_nodes": [[["conv2d_8", 0, 0, {}]]], "config": {"epsilon": 0.001, "center": true, "gamma_initializer": {"config": {}, "class_name": "Ones"}, "beta_initializer": {"config": {}, "class_name": "Zeros"}, "moving_mean_initializer": {"config": {}, "class_name": "Zeros"}, "beta_constraint": null, "momentum": 0.99, "moving_variance_initializer": {"config": {}, "class_name": "Ones"}, "gamma_constraint": null, "gamma_regularizer": null, "name": "batch_normalization_8", "beta_regularizer": null, "scale": true, "trainable": true, "axis": -1}, "class_name": "BatchNormalization", "name": "batch_normalization_8"}, {"inbound_nodes": [[["batch_normalization_8", 0, 0, {}], ["activation_6", 0, 0, {}]]], "config": {"trainable": true, "name": "add_2"}, "class_name": "Add", "name": "add_2"}, {"inbound_nodes": [[["add_2", 0, 0, {}]]], "config": {"name": "activation_8", "activation": "relu", "trainable": true}, "class_name": "Activation", "name": "activation_8"}, {"inbound_nodes": [[["activation_8", 0, 0, {}]]], "config": {"kernel_size": [3, 3], "use_bias": true, "dilation_rate": [1, 1], "activity_regularizer": null, "kernel_regularizer": null, "activation": "linear", "data_format": "channels_last", "kernel_constraint": null, "filters": 64, "bias_initializer": {"config": {}, "class_name": "Zeros"}, "trainable": true, "name": "conv2d_9", "strides": [1, 1], "padding": "same", "bias_regularizer": null, "kernel_initializer": {"config": {"seed": null, "distribution": "uniform", "mode": "fan_avg", "scale": 1.0}, "class_name": "VarianceScaling"}, "bias_constraint": null}, "class_name": "Conv2D", "name": "conv2d_9"}, {"inbound_nodes": [[["conv2d_9", 0, 0, {}]]], "config": {"epsilon": 0.001, "center": true, "gamma_initializer": {"config": {}, "class_name": "Ones"}, "beta_initializer": {"config": {}, "class_name": "Zeros"}, "moving_mean_initializer": {"config": {}, "class_name": "Zeros"}, "beta_constraint": null, "momentum": 0.99, "moving_variance_initializer": {"config": {}, "class_name": "Ones"}, "gamma_constraint": null, "gamma_regularizer": null, "name": "batch_normalization_9", "beta_regularizer": null, "scale": true, "trainable": true, "axis": -1}, "class_name": "BatchNormalization", "name": "batch_normalization_9"}, {"inbound_nodes": [[["batch_normalization_9", 0, 0, {}]]], "config": {"name": "activation_9", "activation": "relu", "trainable": true}, "class_name": "Activation", "name": "activation_9"}, {"inbound_nodes": [[["activation_9", 0, 0, {}]]], "config": {"kernel_size": [3, 3], "use_bias": true, "dilation_rate": [1, 1], "activity_regularizer": null, "kernel_regularizer": null, "activation": "linear", "data_format": "channels_last", "kernel_constraint": null, "filters": 64, "bias_initializer": {"config": {}, "class_name": "Zeros"}, "trainable": true, "name": "conv2d_10", "strides": [1, 1], "padding": "same", "bias_regularizer": null, "kernel_initializer": {"config": {"seed": null, "distribution": "uniform", "mode": "fan_avg", "scale": 1.0}, "class_name": "VarianceScaling"}, "bias_constraint": null}, "class_name": "Conv2D", "name": "conv2d_10"}, {"inbound_nodes": [[["conv2d_10", 0, 0, {}]]], "config": {"epsilon": 0.001, "center": true, "gamma_initializer": {"config": {}, "class_name": "Ones"}, "beta_initializer": {"config": {}, "class_name": "Zeros"}, "moving_mean_initializer": {"config": {}, "class_name": "Zeros"}, "beta_constraint": null, "momentum": 0.99, "moving_variance_initializer": {"config": {}, "class_name": "Ones"}, "gamma_constraint": null, "gamma_regularizer": null, "name": "batch_normalization_10", "beta_regularizer": null, "scale": true, "trainable": true, "axis": -1}, "class_name": "BatchNormalization", "name": "batch_normalization_10"}, {"inbound_nodes": [[["batch_normalization_10", 0, 0, {}], ["activation_8", 0, 0, {}]]], "config": {"trainable": true, "name": "add_3"}, "class_name": "Add", "name": "add_3"}, {"inbound_nodes": [[["add_3", 0, 0, {}]]], "config": {"name": "activation_10", "activation": "relu", "trainable": true}, "class_name": "Activation", "name": "activation_10"}, {"inbound_nodes": [[["activation_10", 0, 0, {}]]], "config": {"pool_size": [2, 2], "data_format": "channels_last", "name": "max_pooling2d_3", "strides": [2, 2], "padding": "valid", "trainable": true}, "class_name": "MaxPooling2D", "name": "max_pooling2d_3"}, {"inbound_nodes": [[["max_pooling2d_3", 0, 0, {}]]], "config": {"kernel_size": [3, 3], "use_bias": true, "dilation_rate": [1, 1], "activity_regularizer": null, "kernel_regularizer": null, "activation": "linear", "data_format": "channels_last", "kernel_constraint": null, "filters": 64, "bias_initializer": {"config": {}, "class_name": "Zeros"}, "trainable": true, "name": "conv2d_11", "strides": [1, 1], "padding": "same", "bias_regularizer": null, "kernel_initializer": {"config": {"seed": null, "distribution": "uniform", "mode": "fan_avg", "scale": 1.0}, "class_name": "VarianceScaling"}, "bias_constraint": null}, "class_name": "Conv2D", "name": "conv2d_11"}, {"inbound_nodes": [[["conv2d_11", 0, 0, {}]]], "config": {"epsilon": 0.001, "center": true, "gamma_initializer": {"config": {}, "class_name": "Ones"}, "beta_initializer": {"config": {}, "class_name": "Zeros"}, "moving_mean_initializer": {"config": {}, "class_name": "Zeros"}, "beta_constraint": null, "momentum": 0.99, "moving_variance_initializer": {"config": {}, "class_name": "Ones"}, "gamma_constraint": null, "gamma_regularizer": null, "name": "batch_normalization_11", "beta_regularizer": null, "scale": true, "trainable": true, "axis": -1}, "class_name": "BatchNormalization", "name": "batch_normalization_11"}, {"inbound_nodes": [[["batch_normalization_11", 0, 0, {}]]], "config": {"name": "activation_11", "activation": "relu", "trainable": true}, "class_name": "Activation", "name": "activation_11"}, {"inbound_nodes": [[["activation_11", 0, 0, {}]]], "config": {"kernel_size": [3, 3], "use_bias": true, "dilation_rate": [1, 1], "activity_regularizer": null, "kernel_regularizer": null, "activation": "linear", "data_format": "channels_last", "kernel_constraint": null, "filters": 64, "bias_initializer": {"config": {}, "class_name": "Zeros"}, "trainable": true, "name": "conv2d_12", "strides": [1, 1], "padding": "same", "bias_regularizer": null, "kernel_initializer": {"config": {"seed": null, "distribution": "uniform", "mode": "fan_avg", "scale": 1.0}, "class_name": "VarianceScaling"}, "bias_constraint": null}, "class_name": "Conv2D", "name": "conv2d_12"}, {"inbound_nodes": [[["conv2d_12", 0, 0, {}]]], "config": {"epsilon": 0.001, "center": true, "gamma_initializer": {"config": {}, "class_name": "Ones"}, "beta_initializer": {"config": {}, "class_name": "Zeros"}, "moving_mean_initializer": {"config": {}, "class_name": "Zeros"}, "beta_constraint": null, "momentum": 0.99, "moving_variance_initializer": {"config": {}, "class_name": "Ones"}, "gamma_constraint": null, "gamma_regularizer": null, "name": "batch_normalization_12", "beta_regularizer": null, "scale": true, "trainable": true, "axis": -1}, "class_name": "BatchNormalization", "name": "batch_normalization_12"}, {"inbound_nodes": [[["batch_normalization_12", 0, 0, {}]]], "config": {"name": "activation_12", "activation": "relu", "trainable": true}, "class_name": "Activation", "name": "activation_12"}, {"inbound_nodes": [[["activation_12", 0, 0, {}]]], "config": {"kernel_size": [3, 3], "use_bias": true, "dilation_rate": [1, 1], "activity_regularizer": null, "kernel_regularizer": null, "activation": "linear", "data_format": "channels_last", "kernel_constraint": null, "filters": 64, "bias_initializer": {"config": {}, "class_name": "Zeros"}, "trainable": true, "name": "conv2d_13", "strides": [1, 1], "padding": "same", "bias_regularizer": null, "kernel_initializer": {"config": {"seed": null, "distribution": "uniform", "mode": "fan_avg", "scale": 1.0}, "class_name": "VarianceScaling"}, "bias_constraint": null}, "class_name": "Conv2D", "name": "conv2d_13"}, {"inbound_nodes": [[["conv2d_13", 0, 0, {}]]], "config": {"epsilon": 0.001, "center": true, "gamma_initializer": {"config": {}, "class_name": "Ones"}, "beta_initializer": {"config": {}, "class_name": "Zeros"}, "moving_mean_initializer": {"config": {}, "class_name": "Zeros"}, "beta_constraint": null, "momentum": 0.99, "moving_variance_initializer": {"config": {}, "class_name": "Ones"}, "gamma_constraint": null, "gamma_regularizer": null, "name": "batch_normalization_13", "beta_regularizer": null, "scale": true, "trainable": true, "axis": -1}, "class_name": "BatchNormalization", "name": "batch_normalization_13"}, {"inbound_nodes": [[["batch_normalization_13", 0, 0, {}], ["activation_11", 0, 0, {}]]], "config": {"trainable": true, "name": "add_4"}, "class_name": "Add", "name": "add_4"}, {"inbound_nodes": [[["add_4", 0, 0, {}]]], "config": {"name": "activation_13", "activation": "relu", "trainable": true}, "class_name": "Activation", "name": "activation_13"}, {"inbound_nodes": [[["activation_13", 0, 0, {}]]], "config": {"kernel_size": [3, 3], "use_bias": true, "dilation_rate": [1, 1], "activity_regularizer": null, "kernel_regularizer": null, "activation": "linear", "data_format": "channels_last", "kernel_constraint": null, "filters": 64, "bias_initializer": {"config": {}, "class_name": "Zeros"}, "trainable": true, "name": "conv2d_14", "strides": [1, 1], "padding": "same", "bias_regularizer": null, "kernel_initializer": {"config": {"seed": null, "distribution": "uniform", "mode": "fan_avg", "scale": 1.0}, "class_name": "VarianceScaling"}, "bias_constraint": null}, "class_name": "Conv2D", "name": "conv2d_14"}, {"inbound_nodes": [[["conv2d_14", 0, 0, {}]]], "config": {"epsilon": 0.001, "center": true, "gamma_initializer": {"config": {}, "class_name": "Ones"}, "beta_initializer": {"config": {}, "class_name": "Zeros"}, "moving_mean_initializer": {"config": {}, "class_name": "Zeros"}, "beta_constraint": null, "momentum": 0.99, "moving_variance_initializer": {"config": {}, "class_name": "Ones"}, "gamma_constraint": null, "gamma_regularizer": null, "name": "batch_normalization_14", "beta_regularizer": null, "scale": true, "trainable": true, "axis": -1}, "class_name": "BatchNormalization", "name": "batch_normalization_14"}, {"inbound_nodes": [[["batch_normalization_14", 0, 0, {}]]], "config": {"name": "activation_14", "activation": "relu", "trainable": true}, "class_name": "Activation", "name": "activation_14"}, {"inbound_nodes": [[["activation_14", 0, 0, {}]]], "config": {"kernel_size": [3, 3], "use_bias": true, "dilation_rate": [1, 1], "activity_regularizer": null, "kernel_regularizer": null, "activation": "linear", "data_format": "channels_last", "kernel_constraint": null, "filters": 64, "bias_initializer": {"config": {}, "class_name": "Zeros"}, "trainable": true, "name": "conv2d_15", "strides": [1, 1], "padding": "same", "bias_regularizer": null, "kernel_initializer": {"config": {"seed": null, "distribution": "uniform", "mode": "fan_avg", "scale": 1.0}, "class_name": "VarianceScaling"}, "bias_constraint": null}, "class_name": "Conv2D", "name": "conv2d_15"}, {"inbound_nodes": [[["conv2d_15", 0, 0, {}]]], "config": {"epsilon": 0.001, "center": true, "gamma_initializer": {"config": {}, "class_name": "Ones"}, "beta_initializer": {"config": {}, "class_name": "Zeros"}, "moving_mean_initializer": {"config": {}, "class_name": "Zeros"}, "beta_constraint": null, "momentum": 0.99, "moving_variance_initializer": {"config": {}, "class_name": "Ones"}, "gamma_constraint": null, "gamma_regularizer": null, "name": "batch_normalization_15", "beta_regularizer": null, "scale": true, "trainable": true, "axis": -1}, "class_name": "BatchNormalization", "name": "batch_normalization_15"}, {"inbound_nodes": [[["batch_normalization_15", 0, 0, {}], ["activation_13", 0, 0, {}]]], "config": {"trainable": true, "name": "add_5"}, "class_name": "Add", "name": "add_5"}, {"inbound_nodes": [[["add_5", 0, 0, {}]]], "config": {"name": "activation_15", "activation": "relu", "trainable": true}, "class_name": "Activation", "name": "activation_15"}, {"inbound_nodes": [[["activation_15", 0, 0, {}]]], "config": {"pool_size": [2, 2], "data_format": "channels_last", "name": "max_pooling2d_4", "strides": [2, 2], "padding": "valid", "trainable": true}, "class_name": "MaxPooling2D", "name": "max_pooling2d_4"}, {"inbound_nodes": [[["max_pooling2d_4", 0, 0, {}]]], "config": {"kernel_size": [3, 3], "use_bias": true, "dilation_rate": [1, 1], "activity_regularizer": null, "kernel_regularizer": null, "activation": "linear", "data_format": "channels_last", "kernel_constraint": null, "filters": 128, "bias_initializer": {"config": {}, "class_name": "Zeros"}, "trainable": true, "name": "conv2d_16", "strides": [1, 1], "padding": "same", "bias_regularizer": null, "kernel_initializer": {"config": {"seed": null, "distribution": "uniform", "mode": "fan_avg", "scale": 1.0}, "class_name": "VarianceScaling"}, "bias_constraint": null}, "class_name": "Conv2D", "name": "conv2d_16"}, {"inbound_nodes": [[["conv2d_16", 0, 0, {}]]], "config": {"epsilon": 0.001, "center": true, "gamma_initializer": {"config": {}, "class_name": "Ones"}, "beta_initializer": {"config": {}, "class_name": "Zeros"}, "moving_mean_initializer": {"config": {}, "class_name": "Zeros"}, "beta_constraint": null, "momentum": 0.99, "moving_variance_initializer": {"config": {}, "class_name": "Ones"}, "gamma_constraint": null, "gamma_regularizer": null, "name": "batch_normalization_16", "beta_regularizer": null, "scale": true, "trainable": true, "axis": -1}, "class_name": "BatchNormalization", "name": "batch_normalization_16"}, {"inbound_nodes": [[["batch_normalization_16", 0, 0, {}]]], "config": {"name": "activation_16", "activation": "relu", "trainable": true}, "class_name": "Activation", "name": "activation_16"}, {"inbound_nodes": [[["activation_16", 0, 0, {}]]], "config": {"kernel_size": [3, 3], "use_bias": true, "dilation_rate": [1, 1], "activity_regularizer": null, "kernel_regularizer": null, "activation": "linear", "data_format": "channels_last", "kernel_constraint": null, "filters": 128, "bias_initializer": {"config": {}, "class_name": "Zeros"}, "trainable": true, "name": "conv2d_17", "strides": [1, 1], "padding": "same", "bias_regularizer": null, "kernel_initializer": {"config": {"seed": null, "distribution": "uniform", "mode": "fan_avg", "scale": 1.0}, "class_name": "VarianceScaling"}, "bias_constraint": null}, "class_name": "Conv2D", "name": "conv2d_17"}, {"inbound_nodes": [[["conv2d_17", 0, 0, {}]]], "config": {"epsilon": 0.001, "center": true, "gamma_initializer": {"config": {}, "class_name": "Ones"}, "beta_initializer": {"config": {}, "class_name": "Zeros"}, "moving_mean_initializer": {"config": {}, "class_name": "Zeros"}, "beta_constraint": null, "momentum": 0.99, "moving_variance_initializer": {"config": {}, "class_name": "Ones"}, "gamma_constraint": null, "gamma_regularizer": null, "name": "batch_normalization_17", "beta_regularizer": null, "scale": true, "trainable": true, "axis": -1}, "class_name": "BatchNormalization", "name": "batch_normalization_17"}, {"inbound_nodes": [[["batch_normalization_17", 0, 0, {}]]], "config": {"name": "activation_17", "activation": "relu", "trainable": true}, "class_name": "Activation", "name": "activation_17"}, {"inbound_nodes": [[["activation_17", 0, 0, {}]]], "config": {"kernel_size": [3, 3], "use_bias": true, "dilation_rate": [1, 1], "activity_regularizer": null, "kernel_regularizer": null, "activation": "linear", "data_format": "channels_last", "kernel_constraint": null, "filters": 128, "bias_initializer": {"config": {}, "class_name": "Zeros"}, "trainable": true, "name": "conv2d_18", "strides": [1, 1], "padding": "same", "bias_regularizer": null, "kernel_initializer": {"config": {"seed": null, "distribution": "uniform", "mode": "fan_avg", "scale": 1.0}, "class_name": "VarianceScaling"}, "bias_constraint": null}, "class_name": "Conv2D", "name": "conv2d_18"}, {"inbound_nodes": [[["conv2d_18", 0, 0, {}]]], "config": {"epsilon": 0.001, "center": true, "gamma_initializer": {"config": {}, "class_name": "Ones"}, "beta_initializer": {"config": {}, "class_name": "Zeros"}, "moving_mean_initializer": {"config": {}, "class_name": "Zeros"}, "beta_constraint": null, "momentum": 0.99, "moving_variance_initializer": {"config": {}, "class_name": "Ones"}, "gamma_constraint": null, "gamma_regularizer": null, "name": "batch_normalization_18", "beta_regularizer": null, "scale": true, "trainable": true, "axis": -1}, "class_name": "BatchNormalization", "name": "batch_normalization_18"}, {"inbound_nodes": [[["batch_normalization_18", 0, 0, {}], ["activation_16", 0, 0, {}]]], "config": {"trainable": true, "name": "add_6"}, "class_name": "Add", "name": "add_6"}, {"inbound_nodes": [[["add_6", 0, 0, {}]]], "config": {"name": "activation_18", "activation": "relu", "trainable": true}, "class_name": "Activation", "name": "activation_18"}, {"inbound_nodes": [[["activation_18", 0, 0, {}]]], "config": {"kernel_size": [3, 3], "use_bias": true, "dilation_rate": [1, 1], "activity_regularizer": null, "kernel_regularizer": null, "activation": "linear", "data_format": "channels_last", "kernel_constraint": null, "filters": 128, "bias_initializer": {"config": {}, "class_name": "Zeros"}, "trainable": true, "name": "conv2d_19", "strides": [1, 1], "padding": "same", "bias_regularizer": null, "kernel_initializer": {"config": {"seed": null, "distribution": "uniform", "mode": "fan_avg", "scale": 1.0}, "class_name": "VarianceScaling"}, "bias_constraint": null}, "class_name": "Conv2D", "name": "conv2d_19"}, {"inbound_nodes": [[["conv2d_19", 0, 0, {}]]], "config": {"epsilon": 0.001, "center": true, "gamma_initializer": {"config": {}, "class_name": "Ones"}, "beta_initializer": {"config": {}, "class_name": "Zeros"}, "moving_mean_initializer": {"config": {}, "class_name": "Zeros"}, "beta_constraint": null, "momentum": 0.99, "moving_variance_initializer": {"config": {}, "class_name": "Ones"}, "gamma_constraint": null, "gamma_regularizer": null, "name": "batch_normalization_19", "beta_regularizer": null, "scale": true, "trainable": true, "axis": -1}, "class_name": "BatchNormalization", "name": "batch_normalization_19"}, {"inbound_nodes": [[["batch_normalization_19", 0, 0, {}]]], "config": {"name": "activation_19", "activation": "relu", "trainable": true}, "class_name": "Activation", "name": "activation_19"}, {"inbound_nodes": [[["activation_19", 0, 0, {}]]], "config": {"kernel_size": [3, 3], "use_bias": true, "dilation_rate": [1, 1], "activity_regularizer": null, "kernel_regularizer": null, "activation": "linear", "data_format": "channels_last", "kernel_constraint": null, "filters": 128, "bias_initializer": {"config": {}, "class_name": "Zeros"}, "trainable": true, "name": "conv2d_20", "strides": [1, 1], "padding": "same", "bias_regularizer": null, "kernel_initializer": {"config": {"seed": null, "distribution": "uniform", "mode": "fan_avg", "scale": 1.0}, "class_name": "VarianceScaling"}, "bias_constraint": null}, "class_name": "Conv2D", "name": "conv2d_20"}, {"inbound_nodes": [[["conv2d_20", 0, 0, {}]]], "config": {"epsilon": 0.001, "center": true, "gamma_initializer": {"config": {}, "class_name": "Ones"}, "beta_initializer": {"config": {}, "class_name": "Zeros"}, "moving_mean_initializer": {"config": {}, "class_name": "Zeros"}, "beta_constraint": null, "momentum": 0.99, "moving_variance_initializer": {"config": {}, "class_name": "Ones"}, "gamma_constraint": null, "gamma_regularizer": null, "name": "batch_normalization_20", "beta_regularizer": null, "scale": true, "trainable": true, "axis": -1}, "class_name": "BatchNormalization", "name": "batch_normalization_20"}, {"inbound_nodes": [[["batch_normalization_20", 0, 0, {}], ["activation_18", 0, 0, {}]]], "config": {"trainable": true, "name": "add_7"}, "class_name": "Add", "name": "add_7"}, {"inbound_nodes": [[["add_7", 0, 0, {}]]], "config": {"name": "activation_20", "activation": "relu", "trainable": true}, "class_name": "Activation", "name": "activation_20"}, {"inbound_nodes": [[["activation_20", 0, 0, {}]]], "config": {"kernel_size": [3, 3], "use_bias": true, "dilation_rate": [1, 1], "activity_regularizer": null, "kernel_regularizer": null, "activation": "linear", "data_format": "channels_last", "kernel_constraint": null, "filters": 128, "bias_initializer": {"config": {}, "class_name": "Zeros"}, "trainable": true, "name": "conv2d_21", "strides": [1, 1], "padding": "same", "bias_regularizer": null, "kernel_initializer": {"config": {"seed": null, "distribution": "uniform", "mode": "fan_avg", "scale": 1.0}, "class_name": "VarianceScaling"}, "bias_constraint": null}, "class_name": "Conv2D", "name": "conv2d_21"}, {"inbound_nodes": [[["conv2d_21", 0, 0, {}]]], "config": {"epsilon": 0.001, "center": true, "gamma_initializer": {"config": {}, "class_name": "Ones"}, "beta_initializer": {"config": {}, "class_name": "Zeros"}, "moving_mean_initializer": {"config": {}, "class_name": "Zeros"}, "beta_constraint": null, "momentum": 0.99, "moving_variance_initializer": {"config": {}, "class_name": "Ones"}, "gamma_constraint": null, "gamma_regularizer": null, "name": "batch_normalization_21", "beta_regularizer": null, "scale": true, "trainable": true, "axis": -1}, "class_name": "BatchNormalization", "name": "batch_normalization_21"}, {"inbound_nodes": [[["batch_normalization_21", 0, 0, {}]]], "config": {"name": "activation_21", "activation": "relu", "trainable": true}, "class_name": "Activation", "name": "activation_21"}, {"inbound_nodes": [[["activation_21", 0, 0, {}]]], "config": {"kernel_size": [3, 3], "use_bias": true, "dilation_rate": [1, 1], "activity_regularizer": null, "kernel_regularizer": null, "activation": "linear", "data_format": "channels_last", "kernel_constraint": null, "filters": 128, "bias_initializer": {"config": {}, "class_name": "Zeros"}, "trainable": true, "name": "conv2d_22", "strides": [1, 1], "padding": "same", "bias_regularizer": null, "kernel_initializer": {"config": {"seed": null, "distribution": "uniform", "mode": "fan_avg", "scale": 1.0}, "class_name": "VarianceScaling"}, "bias_constraint": null}, "class_name": "Conv2D", "name": "conv2d_22"}, {"inbound_nodes": [[["conv2d_22", 0, 0, {}]]], "config": {"epsilon": 0.001, "center": true, "gamma_initializer": {"config": {}, "class_name": "Ones"}, "beta_initializer": {"config": {}, "class_name": "Zeros"}, "moving_mean_initializer": {"config": {}, "class_name": "Zeros"}, "beta_constraint": null, "momentum": 0.99, "moving_variance_initializer": {"config": {}, "class_name": "Ones"}, "gamma_constraint": null, "gamma_regularizer": null, "name": "batch_normalization_22", "beta_regularizer": null, "scale": true, "trainable": true, "axis": -1}, "class_name": "BatchNormalization", "name": "batch_normalization_22"}, {"inbound_nodes": [[["batch_normalization_22", 0, 0, {}], ["activation_20", 0, 0, {}]]], "config": {"trainable": true, "name": "add_8"}, "class_name": "Add", "name": "add_8"}, {"inbound_nodes": [[["add_8", 0, 0, {}]]], "config": {"name": "activation_22", "activation": "relu", "trainable": true}, "class_name": "Activation", "name": "activation_22"}, {"inbound_nodes": [[["activation_22", 0, 0, {}]]], "config": {"kernel_size": [3, 3], "use_bias": true, "dilation_rate": [1, 1], "activity_regularizer": null, "kernel_regularizer": null, "activation": "linear", "data_format": "channels_last", "kernel_constraint": null, "filters": 128, "bias_initializer": {"config": {}, "class_name": "Zeros"}, "trainable": true, "name": "conv2d_23", "strides": [1, 1], "padding": "same", "bias_regularizer": null, "kernel_initializer": {"config": {"seed": null, "distribution": "uniform", "mode": "fan_avg", "scale": 1.0}, "class_name": "VarianceScaling"}, "bias_constraint": null}, "class_name": "Conv2D", "name": "conv2d_23"}, {"inbound_nodes": [[["conv2d_23", 0, 0, {}]]], "config": {"epsilon": 0.001, "center": true, "gamma_initializer": {"config": {}, "class_name": "Ones"}, "beta_initializer": {"config": {}, "class_name": "Zeros"}, "moving_mean_initializer": {"config": {}, "class_name": "Zeros"}, "beta_constraint": null, "momentum": 0.99, "moving_variance_initializer": {"config": {}, "class_name": "Ones"}, "gamma_constraint": null, "gamma_regularizer": null, "name": "batch_normalization_23", "beta_regularizer": null, "scale": true, "trainable": true, "axis": -1}, "class_name": "BatchNormalization", "name": "batch_normalization_23"}, {"inbound_nodes": [[["batch_normalization_23", 0, 0, {}]]], "config": {"name": "activation_23", "activation": "relu", "trainable": true}, "class_name": "Activation", "name": "activation_23"}, {"inbound_nodes": [[["activation_23", 0, 0, {}]]], "config": {"kernel_size": [3, 3], "use_bias": true, "dilation_rate": [1, 1], "activity_regularizer": null, "kernel_regularizer": null, "activation": "linear", "data_format": "channels_last", "kernel_constraint": null, "filters": 128, "bias_initializer": {"config": {}, "class_name": "Zeros"}, "trainable": true, "name": "conv2d_24", "strides": [1, 1], "padding": "same", "bias_regularizer": null, "kernel_initializer": {"config": {"seed": null, "distribution": "uniform", "mode": "fan_avg", "scale": 1.0}, "class_name": "VarianceScaling"}, "bias_constraint": null}, "class_name": "Conv2D", "name": "conv2d_24"}, {"inbound_nodes": [[["conv2d_24", 0, 0, {}]]], "config": {"epsilon": 0.001, "center": true, "gamma_initializer": {"config": {}, "class_name": "Ones"}, "beta_initializer": {"config": {}, "class_name": "Zeros"}, "moving_mean_initializer": {"config": {}, "class_name": "Zeros"}, "beta_constraint": null, "momentum": 0.99, "moving_variance_initializer": {"config": {}, "class_name": "Ones"}, "gamma_constraint": null, "gamma_regularizer": null, "name": "batch_normalization_24", "beta_regularizer": null, "scale": true, "trainable": true, "axis": -1}, "class_name": "BatchNormalization", "name": "batch_normalization_24"}, {"inbound_nodes": [[["batch_normalization_24", 0, 0, {}], ["activation_22", 0, 0, {}]]], "config": {"trainable": true, "name": "add_9"}, "class_name": "Add", "name": "add_9"}, {"inbound_nodes": [[["add_9", 0, 0, {}]]], "config": {"name": "activation_24", "activation": "relu", "trainable": true}, "class_name": "Activation", "name": "activation_24"}, {"inbound_nodes": [[["activation_24", 0, 0, {}]]], "config": {"kernel_size": [3, 3], "use_bias": true, "dilation_rate": [1, 1], "activity_regularizer": null, "kernel_regularizer": null, "activation": "softmax", "data_format": "channels_last", "kernel_constraint": null, "filters": 2, "bias_initializer": {"config": {}, "class_name": "Zeros"}, "trainable": true, "name": "conv2d_25", "strides": [1, 1], "padding": "same", "bias_regularizer": null, "kernel_initializer": {"config": {"seed": null, "distribution": "uniform", "mode": "fan_avg", "scale": 1.0}, "class_name": "VarianceScaling"}, "bias_constraint": null}, "class_name": "Conv2D", "name": "conv2d_25"}, {"inbound_nodes": [[["activation_24", 0, 0, {}]]], "config": {"kernel_size": [3, 3], "use_bias": true, "dilation_rate": [1, 1], "activity_regularizer": null, "kernel_regularizer": null, "activation": "linear", "data_format": "channels_last", "kernel_constraint": null, "filters": 6, "bias_initializer": {"config": {}, "class_name": "Zeros"}, "trainable": true, "name": "conv2d_26", "strides": [1, 1], "padding": "same", "bias_regularizer": null, "kernel_initializer": {"config": {"seed": null, "distribution": "uniform", "mode": "fan_avg", "scale": 1.0}, "class_name": "VarianceScaling"}, "bias_constraint": null}, "class_name": "Conv2D", "name": "conv2d_26"}, {"inbound_nodes": [[["conv2d_25", 0, 0, {}], ["conv2d_26", 0, 0, {}]]], "config": {"name": "concatenate_1", "trainable": true, "axis": 3}, "class_name": "Concatenate", "name": "concatenate_1"}], "output_layers": [["concatenate_1", 0, 0]], "input_layers": [["input", 0, 0]], "name": "model_1"}, "class_name": "Model"}