{"backend": "tensorflow", "config": {"output_layers": [["concatenate_1", 0, 0]], "layers": [{"config": {"batch_input_shape": [null, null, null, 3], "dtype": "float32", "sparse": false, "name": "input"}, "name": "input", "class_name": "InputLayer", "inbound_nodes": []}, {"config": {"dilation_rate": [1, 1], "strides": [1, 1], "use_bias": true, "kernel_initializer": {"config": {"mode": "fan_avg", "distribution": "uniform", "scale": 1.0, "seed": null}, "class_name": "VarianceScaling"}, "name": "conv2d_1", "kernel_constraint": null, "kernel_regularizer": null, "trainable": true, "data_format": "channels_last", "padding": "same", "filters": 16, "bias_constraint": null, "bias_initializer": {"config": {}, "class_name": "Zeros"}, "activation": "linear", "kernel_size": [3, 3], "activity_regularizer": null, "bias_regularizer": null}, "name": "conv2d_1", "class_name": "Conv2D", "inbound_nodes": [[["input", 0, 0, {}]]]}, {"config": {"momentum": 0.99, "moving_mean_initializer": {"config": {}, "class_name": "Zeros"}, "epsilon": 0.001, "moving_variance_initializer": {"config": {}, "class_name": "Ones"}, "beta_initializer": {"config": {}, "class_name": "Zeros"}, "gamma_initializer": {"config": {}, "class_name": "Ones"}, "trainable": true, "center": true, "gamma_regularizer": null, "beta_constraint": null, "gamma_constraint": null, "name": "batch_normalization_1", "axis": -1, "scale": true, "beta_regularizer": null}, "name": "batch_normalization_1", "class_name": "BatchNormalization", "inbound_nodes": [[["conv2d_1", 0, 0, {}]]]}, {"config": {"activation": "relu", "trainable": true, "name": "activation_1"}, "name": "activation_1", "class_name": "Activation", "inbound_nodes": [[["batch_normalization_1", 0, 0, {}]]]}, {"config": {"dilation_rate": [1, 1], "strides": [1, 1], "use_bias": true, "kernel_initializer": {"config": {"mode": "fan_avg", "distribution": "uniform", "scale": 1.0, "seed": null}, "class_name": "VarianceScaling"}, "name": "conv2d_2", "kernel_constraint": null, "kernel_regularizer": null, "trainable": true, "data_format": "channels_last", "padding": "same", "filters": 16, "bias_constraint": null, "bias_initializer": {"config": {}, "class_name": "Zeros"}, "activation": "linear", "kernel_size": [3, 3], "activity_regularizer": null, "bias_regularizer": null}, "name": "conv2d_2", "class_name": "Conv2D", "inbound_nodes": [[["activation_1", 0, 0, {}]]]}, {"config": {"momentum": 0.99, "moving_mean_initializer": {"config": {}, "class_name": "Zeros"}, "epsilon": 0.001, "moving_variance_initializer": {"config": {}, "class_name": "Ones"}, "beta_initializer": {"config": {}, "class_name": "Zeros"}, "gamma_initializer": {"config": {}, "class_name": "Ones"}, "trainable": true, "center": true, "gamma_regularizer": null, "beta_constraint": null, "gamma_constraint": null, "name": "batch_normalization_2", "axis": -1, "scale": true, "beta_regularizer": null}, "name": "batch_normalization_2", "class_name": "BatchNormalization", "inbound_nodes": [[["conv2d_2", 0, 0, {}]]]}, {"config": {"activation": "relu", "trainable": true, "name": "activation_2"}, "name": "activation_2", "class_name": "Activation", "inbound_nodes": [[["batch_normalization_2", 0, 0, {}]]]}, {"config": {"data_format": "channels_last", "pool_size": [2, 2], "padding": "valid", "strides": [2, 2], "trainable": true, "name": "max_pooling2d_1"}, "name": "max_pooling2d_1", "class_name": "MaxPooling2D", "inbound_nodes": [[["activation_2", 0, 0, {}]]]}, {"config": {"rate": 0.4, "noise_shape": null, "seed": null, "trainable": true, "name": "dropout_1"}, "name": "dropout_1", "class_name": "Dropout", "inbound_nodes": [[["max_pooling2d_1", 0, 0, {}]]]}, {"config": {"dilation_rate": [1, 1], "strides": [1, 1], "use_bias": true, "kernel_initializer": {"config": {"mode": "fan_avg", "distribution": "uniform", "scale": 1.0, "seed": null}, "class_name": "VarianceScaling"}, "name": "conv2d_3", "kernel_constraint": null, "kernel_regularizer": null, "trainable": true, "data_format": "channels_last", "padding": "same", "filters": 32, "bias_constraint": null, "bias_initializer": {"config": {}, "class_name": "Zeros"}, "activation": "linear", "kernel_size": [3, 3], "activity_regularizer": null, "bias_regularizer": null}, "name": "conv2d_3", "class_name": "Conv2D", "inbound_nodes": [[["dropout_1", 0, 0, {}]]]}, {"config": {"momentum": 0.99, "moving_mean_initializer": {"config": {}, "class_name": "Zeros"}, "epsilon": 0.001, "moving_variance_initializer": {"config": {}, "class_name": "Ones"}, "beta_initializer": {"config": {}, "class_name": "Zeros"}, "gamma_initializer": {"config": {}, "class_name": "Ones"}, "trainable": true, "center": true, "gamma_regularizer": null, "beta_constraint": null, "gamma_constraint": null, "name": "batch_normalization_3", "axis": -1, "scale": true, "beta_regularizer": null}, "name": "batch_normalization_3", "class_name": "BatchNormalization", "inbound_nodes": [[["conv2d_3", 0, 0, {}]]]}, {"config": {"activation": "relu", "trainable": true, "name": "activation_3"}, "name": "activation_3", "class_name": "Activation", "inbound_nodes": [[["batch_normalization_3", 0, 0, {}]]]}, {"config": {"dilation_rate": [1, 1], "strides": [1, 1], "use_bias": true, "kernel_initializer": {"config": {"mode": "fan_avg", "distribution": "uniform", "scale": 1.0, "seed": null}, "class_name": "VarianceScaling"}, "name": "conv2d_4", "kernel_constraint": null, "kernel_regularizer": null, "trainable": true, "data_format": "channels_last", "padding": "same", "filters": 32, "bias_constraint": null, "bias_initializer": {"config": {}, "class_name": "Zeros"}, "activation": "linear", "kernel_size": [3, 3], "activity_regularizer": null, "bias_regularizer": null}, "name": "conv2d_4", "class_name": "Conv2D", "inbound_nodes": [[["activation_3", 0, 0, {}]]]}, {"config": {"momentum": 0.99, "moving_mean_initializer": {"config": {}, "class_name": "Zeros"}, "epsilon": 0.001, "moving_variance_initializer": {"config": {}, "class_name": "Ones"}, "beta_initializer": {"config": {}, "class_name": "Zeros"}, "gamma_initializer": {"config": {}, "class_name": "Ones"}, "trainable": true, "center": true, "gamma_regularizer": null, "beta_constraint": null, "gamma_constraint": null, "name": "batch_normalization_4", "axis": -1, "scale": true, "beta_regularizer": null}, "name": "batch_normalization_4", "class_name": "BatchNormalization", "inbound_nodes": [[["conv2d_4", 0, 0, {}]]]}, {"config": {"activation": "relu", "trainable": true, "name": "activation_4"}, "name": "activation_4", "class_name": "Activation", "inbound_nodes": [[["batch_normalization_4", 0, 0, {}]]]}, {"config": {"dilation_rate": [1, 1], "strides": [1, 1], "use_bias": true, "kernel_initializer": {"config": {"mode": "fan_avg", "distribution": "uniform", "scale": 1.0, "seed": null}, "class_name": "VarianceScaling"}, "name": "conv2d_5", "kernel_constraint": null, "kernel_regularizer": null, "trainable": true, "data_format": "channels_last", "padding": "same", "filters": 32, "bias_constraint": null, "bias_initializer": {"config": {}, "class_name": "Zeros"}, "activation": "linear", "kernel_size": [3, 3], "activity_regularizer": null, "bias_regularizer": null}, "name": "conv2d_5", "class_name": "Conv2D", "inbound_nodes": [[["activation_4", 0, 0, {}]]]}, {"config": {"momentum": 0.99, "moving_mean_initializer": {"config": {}, "class_name": "Zeros"}, "epsilon": 0.001, "moving_variance_initializer": {"config": {}, "class_name": "Ones"}, "beta_initializer": {"config": {}, "class_name": "Zeros"}, "gamma_initializer": {"config": {}, "class_name": "Ones"}, "trainable": true, "center": true, "gamma_regularizer": null, "beta_constraint": null, "gamma_constraint": null, "name": "batch_normalization_5", "axis": -1, "scale": true, "beta_regularizer": null}, "name": "batch_normalization_5", "class_name": "BatchNormalization", "inbound_nodes": [[["conv2d_5", 0, 0, {}]]]}, {"config": {"trainable": true, "name": "add_1"}, "name": "add_1", "class_name": "Add", "inbound_nodes": [[["batch_normalization_5", 0, 0, {}], ["activation_3", 0, 0, {}]]]}, {"config": {"activation": "relu", "trainable": true, "name": "activation_5"}, "name": "activation_5", "class_name": "Activation", "inbound_nodes": [[["add_1", 0, 0, {}]]]}, {"config": {"data_format": "channels_last", "pool_size": [2, 2], "padding": "valid", "strides": [2, 2], "trainable": true, "name": "max_pooling2d_2"}, "name": "max_pooling2d_2", "class_name": "MaxPooling2D", "inbound_nodes": [[["activation_5", 0, 0, {}]]]}, {"config": {"rate": 0.4, "noise_shape": null, "seed": null, "trainable": true, "name": "dropout_2"}, "name": "dropout_2", "class_name": "Dropout", "inbound_nodes": [[["max_pooling2d_2", 0, 0, {}]]]}, {"config": {"dilation_rate": [1, 1], "strides": [1, 1], "use_bias": true, "kernel_initializer": {"config": {"mode": "fan_avg", "distribution": "uniform", "scale": 1.0, "seed": null}, "class_name": "VarianceScaling"}, "name": "conv2d_6", "kernel_constraint": null, "kernel_regularizer": null, "trainable": true, "data_format": "channels_last", "padding": "same", "filters": 64, "bias_constraint": null, "bias_initializer": {"config": {}, "class_name": "Zeros"}, "activation": "linear", "kernel_size": [3, 3], "activity_regularizer": null, "bias_regularizer": null}, "name": "conv2d_6", "class_name": "Conv2D", "inbound_nodes": [[["dropout_2", 0, 0, {}]]]}, {"config": {"momentum": 0.99, "moving_mean_initializer": {"config": {}, "class_name": "Zeros"}, "epsilon": 0.001, "moving_variance_initializer": {"config": {}, "class_name": "Ones"}, "beta_initializer": {"config": {}, "class_name": "Zeros"}, "gamma_initializer": {"config": {}, "class_name": "Ones"}, "trainable": true, "center": true, "gamma_regularizer": null, "beta_constraint": null, "gamma_constraint": null, "name": "batch_normalization_6", "axis": -1, "scale": true, "beta_regularizer": null}, "name": "batch_normalization_6", "class_name": "BatchNormalization", "inbound_nodes": [[["conv2d_6", 0, 0, {}]]]}, {"config": {"activation": "relu", "trainable": true, "name": "activation_6"}, "name": "activation_6", "class_name": "Activation", "inbound_nodes": [[["batch_normalization_6", 0, 0, {}]]]}, {"config": {"dilation_rate": [1, 1], "strides": [1, 1], "use_bias": true, "kernel_initializer": {"config": {"mode": "fan_avg", "distribution": "uniform", "scale": 1.0, "seed": null}, "class_name": "VarianceScaling"}, "name": "conv2d_7", "kernel_constraint": null, "kernel_regularizer": null, "trainable": true, "data_format": "channels_last", "padding": "same", "filters": 64, "bias_constraint": null, "bias_initializer": {"config": {}, "class_name": "Zeros"}, "activation": "linear", "kernel_size": [3, 3], "activity_regularizer": null, "bias_regularizer": null}, "name": "conv2d_7", "class_name": "Conv2D", "inbound_nodes": [[["activation_6", 0, 0, {}]]]}, {"config": {"momentum": 0.99, "moving_mean_initializer": {"config": {}, "class_name": "Zeros"}, "epsilon": 0.001, "moving_variance_initializer": {"config": {}, "class_name": "Ones"}, "beta_initializer": {"config": {}, "class_name": "Zeros"}, "gamma_initializer": {"config": {}, "class_name": "Ones"}, "trainable": true, "center": true, "gamma_regularizer": null, "beta_constraint": null, "gamma_constraint": null, "name": "batch_normalization_7", "axis": -1, "scale": true, "beta_regularizer": null}, "name": "batch_normalization_7", "class_name": "BatchNormalization", "inbound_nodes": [[["conv2d_7", 0, 0, {}]]]}, {"config": {"activation": "relu", "trainable": true, "name": "activation_7"}, "name": "activation_7", "class_name": "Activation", "inbound_nodes": [[["batch_normalization_7", 0, 0, {}]]]}, {"config": {"dilation_rate": [1, 1], "strides": [1, 1], "use_bias": true, "kernel_initializer": {"config": {"mode": "fan_avg", "distribution": "uniform", "scale": 1.0, "seed": null}, "class_name": "VarianceScaling"}, "name": "conv2d_8", "kernel_constraint": null, "kernel_regularizer": null, "trainable": true, "data_format": "channels_last", "padding": "same", "filters": 64, "bias_constraint": null, "bias_initializer": {"config": {}, "class_name": "Zeros"}, "activation": "linear", "kernel_size": [3, 3], "activity_regularizer": null, "bias_regularizer": null}, "name": "conv2d_8", "class_name": "Conv2D", "inbound_nodes": [[["activation_7", 0, 0, {}]]]}, {"config": {"momentum": 0.99, "moving_mean_initializer": {"config": {}, "class_name": "Zeros"}, "epsilon": 0.001, "moving_variance_initializer": {"config": {}, "class_name": "Ones"}, "beta_initializer": {"config": {}, "class_name": "Zeros"}, "gamma_initializer": {"config": {}, "class_name": "Ones"}, "trainable": true, "center": true, "gamma_regularizer": null, "beta_constraint": null, "gamma_constraint": null, "name": "batch_normalization_8", "axis": -1, "scale": true, "beta_regularizer": null}, "name": "batch_normalization_8", "class_name": "BatchNormalization", "inbound_nodes": [[["conv2d_8", 0, 0, {}]]]}, {"config": {"trainable": true, "name": "add_2"}, "name": "add_2", "class_name": "Add", "inbound_nodes": [[["batch_normalization_8", 0, 0, {}], ["activation_6", 0, 0, {}]]]}, {"config": {"activation": "relu", "trainable": true, "name": "activation_8"}, "name": "activation_8", "class_name": "Activation", "inbound_nodes": [[["add_2", 0, 0, {}]]]}, {"config": {"dilation_rate": [1, 1], "strides": [1, 1], "use_bias": true, "kernel_initializer": {"config": {"mode": "fan_avg", "distribution": "uniform", "scale": 1.0, "seed": null}, "class_name": "VarianceScaling"}, "name": "conv2d_9", "kernel_constraint": null, "kernel_regularizer": null, "trainable": true, "data_format": "channels_last", "padding": "same", "filters": 64, "bias_constraint": null, "bias_initializer": {"config": {}, "class_name": "Zeros"}, "activation": "linear", "kernel_size": [3, 3], "activity_regularizer": null, "bias_regularizer": null}, "name": "conv2d_9", "class_name": "Conv2D", "inbound_nodes": [[["activation_8", 0, 0, {}]]]}, {"config": {"momentum": 0.99, "moving_mean_initializer": {"config": {}, "class_name": "Zeros"}, "epsilon": 0.001, "moving_variance_initializer": {"config": {}, "class_name": "Ones"}, "beta_initializer": {"config": {}, "class_name": "Zeros"}, "gamma_initializer": {"config": {}, "class_name": "Ones"}, "trainable": true, "center": true, "gamma_regularizer": null, "beta_constraint": null, "gamma_constraint": null, "name": "batch_normalization_9", "axis": -1, "scale": true, "beta_regularizer": null}, "name": "batch_normalization_9", "class_name": "BatchNormalization", "inbound_nodes": [[["conv2d_9", 0, 0, {}]]]}, {"config": {"activation": "relu", "trainable": true, "name": "activation_9"}, "name": "activation_9", "class_name": "Activation", "inbound_nodes": [[["batch_normalization_9", 0, 0, {}]]]}, {"config": {"dilation_rate": [1, 1], "strides": [1, 1], "use_bias": true, "kernel_initializer": {"config": {"mode": "fan_avg", "distribution": "uniform", "scale": 1.0, "seed": null}, "class_name": "VarianceScaling"}, "name": "conv2d_10", "kernel_constraint": null, "kernel_regularizer": null, "trainable": true, "data_format": "channels_last", "padding": "same", "filters": 64, "bias_constraint": null, "bias_initializer": {"config": {}, "class_name": "Zeros"}, "activation": "linear", "kernel_size": [3, 3], "activity_regularizer": null, "bias_regularizer": null}, "name": "conv2d_10", "class_name": "Conv2D", "inbound_nodes": [[["activation_9", 0, 0, {}]]]}, {"config": {"momentum": 0.99, "moving_mean_initializer": {"config": {}, "class_name": "Zeros"}, "epsilon": 0.001, "moving_variance_initializer": {"config": {}, "class_name": "Ones"}, "beta_initializer": {"config": {}, "class_name": "Zeros"}, "gamma_initializer": {"config": {}, "class_name": "Ones"}, "trainable": true, "center": true, "gamma_regularizer": null, "beta_constraint": null, "gamma_constraint": null, "name": "batch_normalization_10", "axis": -1, "scale": true, "beta_regularizer": null}, "name": "batch_normalization_10", "class_name": "BatchNormalization", "inbound_nodes": [[["conv2d_10", 0, 0, {}]]]}, {"config": {"trainable": true, "name": "add_3"}, "name": "add_3", "class_name": "Add", "inbound_nodes": [[["batch_normalization_10", 0, 0, {}], ["activation_8", 0, 0, {}]]]}, {"config": {"activation": "relu", "trainable": true, "name": "activation_10"}, "name": "activation_10", "class_name": "Activation", "inbound_nodes": [[["add_3", 0, 0, {}]]]}, {"config": {"data_format": "channels_last", "pool_size": [2, 2], "padding": "valid", "strides": [2, 2], "trainable": true, "name": "max_pooling2d_3"}, "name": "max_pooling2d_3", "class_name": "MaxPooling2D", "inbound_nodes": [[["activation_10", 0, 0, {}]]]}, {"config": {"rate": 0.4, "noise_shape": null, "seed": null, "trainable": true, "name": "dropout_3"}, "name": "dropout_3", "class_name": "Dropout", "inbound_nodes": [[["max_pooling2d_3", 0, 0, {}]]]}, {"config": {"dilation_rate": [1, 1], "strides": [1, 1], "use_bias": true, "kernel_initializer": {"config": {"mode": "fan_avg", "distribution": "uniform", "scale": 1.0, "seed": null}, "class_name": "VarianceScaling"}, "name": "conv2d_11", "kernel_constraint": null, "kernel_regularizer": null, "trainable": true, "data_format": "channels_last", "padding": "same", "filters": 64, "bias_constraint": null, "bias_initializer": {"config": {}, "class_name": "Zeros"}, "activation": "linear", "kernel_size": [3, 3], "activity_regularizer": null, "bias_regularizer": null}, "name": "conv2d_11", "class_name": "Conv2D", "inbound_nodes": [[["dropout_3", 0, 0, {}]]]}, {"config": {"momentum": 0.99, "moving_mean_initializer": {"config": {}, "class_name": "Zeros"}, "epsilon": 0.001, "moving_variance_initializer": {"config": {}, "class_name": "Ones"}, "beta_initializer": {"config": {}, "class_name": "Zeros"}, "gamma_initializer": {"config": {}, "class_name": "Ones"}, "trainable": true, "center": true, "gamma_regularizer": null, "beta_constraint": null, "gamma_constraint": null, "name": "batch_normalization_11", "axis": -1, "scale": true, "beta_regularizer": null}, "name": "batch_normalization_11", "class_name": "BatchNormalization", "inbound_nodes": [[["conv2d_11", 0, 0, {}]]]}, {"config": {"activation": "relu", "trainable": true, "name": "activation_11"}, "name": "activation_11", "class_name": "Activation", "inbound_nodes": [[["batch_normalization_11", 0, 0, {}]]]}, {"config": {"dilation_rate": [1, 1], "strides": [1, 1], "use_bias": true, "kernel_initializer": {"config": {"mode": "fan_avg", "distribution": "uniform", "scale": 1.0, "seed": null}, "class_name": "VarianceScaling"}, "name": "conv2d_12", "kernel_constraint": null, "kernel_regularizer": null, "trainable": true, "data_format": "channels_last", "padding": "same", "filters": 64, "bias_constraint": null, "bias_initializer": {"config": {}, "class_name": "Zeros"}, "activation": "linear", "kernel_size": [3, 3], "activity_regularizer": null, "bias_regularizer": null}, "name": "conv2d_12", "class_name": "Conv2D", "inbound_nodes": [[["activation_11", 0, 0, {}]]]}, {"config": {"momentum": 0.99, "moving_mean_initializer": {"config": {}, "class_name": "Zeros"}, "epsilon": 0.001, "moving_variance_initializer": {"config": {}, "class_name": "Ones"}, "beta_initializer": {"config": {}, "class_name": "Zeros"}, "gamma_initializer": {"config": {}, "class_name": "Ones"}, "trainable": true, "center": true, "gamma_regularizer": null, "beta_constraint": null, "gamma_constraint": null, "name": "batch_normalization_12", "axis": -1, "scale": true, "beta_regularizer": null}, "name": "batch_normalization_12", "class_name": "BatchNormalization", "inbound_nodes": [[["conv2d_12", 0, 0, {}]]]}, {"config": {"activation": "relu", "trainable": true, "name": "activation_12"}, "name": "activation_12", "class_name": "Activation", "inbound_nodes": [[["batch_normalization_12", 0, 0, {}]]]}, {"config": {"dilation_rate": [1, 1], "strides": [1, 1], "use_bias": true, "kernel_initializer": {"config": {"mode": "fan_avg", "distribution": "uniform", "scale": 1.0, "seed": null}, "class_name": "VarianceScaling"}, "name": "conv2d_13", "kernel_constraint": null, "kernel_regularizer": null, "trainable": true, "data_format": "channels_last", "padding": "same", "filters": 64, "bias_constraint": null, "bias_initializer": {"config": {}, "class_name": "Zeros"}, "activation": "linear", "kernel_size": [3, 3], "activity_regularizer": null, "bias_regularizer": null}, "name": "conv2d_13", "class_name": "Conv2D", "inbound_nodes": [[["activation_12", 0, 0, {}]]]}, {"config": {"momentum": 0.99, "moving_mean_initializer": {"config": {}, "class_name": "Zeros"}, "epsilon": 0.001, "moving_variance_initializer": {"config": {}, "class_name": "Ones"}, "beta_initializer": {"config": {}, "class_name": "Zeros"}, "gamma_initializer": {"config": {}, "class_name": "Ones"}, "trainable": true, "center": true, "gamma_regularizer": null, "beta_constraint": null, "gamma_constraint": null, "name": "batch_normalization_13", "axis": -1, "scale": true, "beta_regularizer": null}, "name": "batch_normalization_13", "class_name": "BatchNormalization", "inbound_nodes": [[["conv2d_13", 0, 0, {}]]]}, {"config": {"trainable": true, "name": "add_4"}, "name": "add_4", "class_name": "Add", "inbound_nodes": [[["batch_normalization_13", 0, 0, {}], ["activation_11", 0, 0, {}]]]}, {"config": {"activation": "relu", "trainable": true, "name": "activation_13"}, "name": "activation_13", "class_name": "Activation", "inbound_nodes": [[["add_4", 0, 0, {}]]]}, {"config": {"dilation_rate": [1, 1], "strides": [1, 1], "use_bias": true, "kernel_initializer": {"config": {"mode": "fan_avg", "distribution": "uniform", "scale": 1.0, "seed": null}, "class_name": "VarianceScaling"}, "name": "conv2d_14", "kernel_constraint": null, "kernel_regularizer": null, "trainable": true, "data_format": "channels_last", "padding": "same", "filters": 64, "bias_constraint": null, "bias_initializer": {"config": {}, "class_name": "Zeros"}, "activation": "linear", "kernel_size": [3, 3], "activity_regularizer": null, "bias_regularizer": null}, "name": "conv2d_14", "class_name": "Conv2D", "inbound_nodes": [[["activation_13", 0, 0, {}]]]}, {"config": {"momentum": 0.99, "moving_mean_initializer": {"config": {}, "class_name": "Zeros"}, "epsilon": 0.001, "moving_variance_initializer": {"config": {}, "class_name": "Ones"}, "beta_initializer": {"config": {}, "class_name": "Zeros"}, "gamma_initializer": {"config": {}, "class_name": "Ones"}, "trainable": true, "center": true, "gamma_regularizer": null, "beta_constraint": null, "gamma_constraint": null, "name": "batch_normalization_14", "axis": -1, "scale": true, "beta_regularizer": null}, "name": "batch_normalization_14", "class_name": "BatchNormalization", "inbound_nodes": [[["conv2d_14", 0, 0, {}]]]}, {"config": {"activation": "relu", "trainable": true, "name": "activation_14"}, "name": "activation_14", "class_name": "Activation", "inbound_nodes": [[["batch_normalization_14", 0, 0, {}]]]}, {"config": {"dilation_rate": [1, 1], "strides": [1, 1], "use_bias": true, "kernel_initializer": {"config": {"mode": "fan_avg", "distribution": "uniform", "scale": 1.0, "seed": null}, "class_name": "VarianceScaling"}, "name": "conv2d_15", "kernel_constraint": null, "kernel_regularizer": null, "trainable": true, "data_format": "channels_last", "padding": "same", "filters": 64, "bias_constraint": null, "bias_initializer": {"config": {}, "class_name": "Zeros"}, "activation": "linear", "kernel_size": [3, 3], "activity_regularizer": null, "bias_regularizer": null}, "name": "conv2d_15", "class_name": "Conv2D", "inbound_nodes": [[["activation_14", 0, 0, {}]]]}, {"config": {"momentum": 0.99, "moving_mean_initializer": {"config": {}, "class_name": "Zeros"}, "epsilon": 0.001, "moving_variance_initializer": {"config": {}, "class_name": "Ones"}, "beta_initializer": {"config": {}, "class_name": "Zeros"}, "gamma_initializer": {"config": {}, "class_name": "Ones"}, "trainable": true, "center": true, "gamma_regularizer": null, "beta_constraint": null, "gamma_constraint": null, "name": "batch_normalization_15", "axis": -1, "scale": true, "beta_regularizer": null}, "name": "batch_normalization_15", "class_name": "BatchNormalization", "inbound_nodes": [[["conv2d_15", 0, 0, {}]]]}, {"config": {"trainable": true, "name": "add_5"}, "name": "add_5", "class_name": "Add", "inbound_nodes": [[["batch_normalization_15", 0, 0, {}], ["activation_13", 0, 0, {}]]]}, {"config": {"activation": "relu", "trainable": true, "name": "activation_15"}, "name": "activation_15", "class_name": "Activation", "inbound_nodes": [[["add_5", 0, 0, {}]]]}, {"config": {"data_format": "channels_last", "pool_size": [2, 2], "padding": "valid", "strides": [2, 2], "trainable": true, "name": "max_pooling2d_4"}, "name": "max_pooling2d_4", "class_name": "MaxPooling2D", "inbound_nodes": [[["activation_15", 0, 0, {}]]]}, {"config": {"rate": 0.4, "noise_shape": null, "seed": null, "trainable": true, "name": "dropout_4"}, "name": "dropout_4", "class_name": "Dropout", "inbound_nodes": [[["max_pooling2d_4", 0, 0, {}]]]}, {"config": {"dilation_rate": [1, 1], "strides": [1, 1], "use_bias": true, "kernel_initializer": {"config": {"mode": "fan_avg", "distribution": "uniform", "scale": 1.0, "seed": null}, "class_name": "VarianceScaling"}, "name": "conv2d_16", "kernel_constraint": null, "kernel_regularizer": null, "trainable": true, "data_format": "channels_last", "padding": "same", "filters": 128, "bias_constraint": null, "bias_initializer": {"config": {}, "class_name": "Zeros"}, "activation": "linear", "kernel_size": [3, 3], "activity_regularizer": null, "bias_regularizer": null}, "name": "conv2d_16", "class_name": "Conv2D", "inbound_nodes": [[["dropout_4", 0, 0, {}]]]}, {"config": {"momentum": 0.99, "moving_mean_initializer": {"config": {}, "class_name": "Zeros"}, "epsilon": 0.001, "moving_variance_initializer": {"config": {}, "class_name": "Ones"}, "beta_initializer": {"config": {}, "class_name": "Zeros"}, "gamma_initializer": {"config": {}, "class_name": "Ones"}, "trainable": true, "center": true, "gamma_regularizer": null, "beta_constraint": null, "gamma_constraint": null, "name": "batch_normalization_16", "axis": -1, "scale": true, "beta_regularizer": null}, "name": "batch_normalization_16", "class_name": "BatchNormalization", "inbound_nodes": [[["conv2d_16", 0, 0, {}]]]}, {"config": {"activation": "relu", "trainable": true, "name": "activation_16"}, "name": "activation_16", "class_name": "Activation", "inbound_nodes": [[["batch_normalization_16", 0, 0, {}]]]}, {"config": {"dilation_rate": [1, 1], "strides": [1, 1], "use_bias": true, "kernel_initializer": {"config": {"mode": "fan_avg", "distribution": "uniform", "scale": 1.0, "seed": null}, "class_name": "VarianceScaling"}, "name": "conv2d_17", "kernel_constraint": null, "kernel_regularizer": null, "trainable": true, "data_format": "channels_last", "padding": "same", "filters": 128, "bias_constraint": null, "bias_initializer": {"config": {}, "class_name": "Zeros"}, "activation": "linear", "kernel_size": [3, 3], "activity_regularizer": null, "bias_regularizer": null}, "name": "conv2d_17", "class_name": "Conv2D", "inbound_nodes": [[["activation_16", 0, 0, {}]]]}, {"config": {"momentum": 0.99, "moving_mean_initializer": {"config": {}, "class_name": "Zeros"}, "epsilon": 0.001, "moving_variance_initializer": {"config": {}, "class_name": "Ones"}, "beta_initializer": {"config": {}, "class_name": "Zeros"}, "gamma_initializer": {"config": {}, "class_name": "Ones"}, "trainable": true, "center": true, "gamma_regularizer": null, "beta_constraint": null, "gamma_constraint": null, "name": "batch_normalization_17", "axis": -1, "scale": true, "beta_regularizer": null}, "name": "batch_normalization_17", "class_name": "BatchNormalization", "inbound_nodes": [[["conv2d_17", 0, 0, {}]]]}, {"config": {"activation": "relu", "trainable": true, "name": "activation_17"}, "name": "activation_17", "class_name": "Activation", "inbound_nodes": [[["batch_normalization_17", 0, 0, {}]]]}, {"config": {"dilation_rate": [1, 1], "strides": [1, 1], "use_bias": true, "kernel_initializer": {"config": {"mode": "fan_avg", "distribution": "uniform", "scale": 1.0, "seed": null}, "class_name": "VarianceScaling"}, "name": "conv2d_18", "kernel_constraint": null, "kernel_regularizer": null, "trainable": true, "data_format": "channels_last", "padding": "same", "filters": 128, "bias_constraint": null, "bias_initializer": {"config": {}, "class_name": "Zeros"}, "activation": "linear", "kernel_size": [3, 3], "activity_regularizer": null, "bias_regularizer": null}, "name": "conv2d_18", "class_name": "Conv2D", "inbound_nodes": [[["activation_17", 0, 0, {}]]]}, {"config": {"momentum": 0.99, "moving_mean_initializer": {"config": {}, "class_name": "Zeros"}, "epsilon": 0.001, "moving_variance_initializer": {"config": {}, "class_name": "Ones"}, "beta_initializer": {"config": {}, "class_name": "Zeros"}, "gamma_initializer": {"config": {}, "class_name": "Ones"}, "trainable": true, "center": true, "gamma_regularizer": null, "beta_constraint": null, "gamma_constraint": null, "name": "batch_normalization_18", "axis": -1, "scale": true, "beta_regularizer": null}, "name": "batch_normalization_18", "class_name": "BatchNormalization", "inbound_nodes": [[["conv2d_18", 0, 0, {}]]]}, {"config": {"trainable": true, "name": "add_6"}, "name": "add_6", "class_name": "Add", "inbound_nodes": [[["batch_normalization_18", 0, 0, {}], ["activation_16", 0, 0, {}]]]}, {"config": {"activation": "relu", "trainable": true, "name": "activation_18"}, "name": "activation_18", "class_name": "Activation", "inbound_nodes": [[["add_6", 0, 0, {}]]]}, {"config": {"dilation_rate": [1, 1], "strides": [1, 1], "use_bias": true, "kernel_initializer": {"config": {"mode": "fan_avg", "distribution": "uniform", "scale": 1.0, "seed": null}, "class_name": "VarianceScaling"}, "name": "conv2d_19", "kernel_constraint": null, "kernel_regularizer": null, "trainable": true, "data_format": "channels_last", "padding": "same", "filters": 128, "bias_constraint": null, "bias_initializer": {"config": {}, "class_name": "Zeros"}, "activation": "linear", "kernel_size": [3, 3], "activity_regularizer": null, "bias_regularizer": null}, "name": "conv2d_19", "class_name": "Conv2D", "inbound_nodes": [[["activation_18", 0, 0, {}]]]}, {"config": {"momentum": 0.99, "moving_mean_initializer": {"config": {}, "class_name": "Zeros"}, "epsilon": 0.001, "moving_variance_initializer": {"config": {}, "class_name": "Ones"}, "beta_initializer": {"config": {}, "class_name": "Zeros"}, "gamma_initializer": {"config": {}, "class_name": "Ones"}, "trainable": true, "center": true, "gamma_regularizer": null, "beta_constraint": null, "gamma_constraint": null, "name": "batch_normalization_19", "axis": -1, "scale": true, "beta_regularizer": null}, "name": "batch_normalization_19", "class_name": "BatchNormalization", "inbound_nodes": [[["conv2d_19", 0, 0, {}]]]}, {"config": {"activation": "relu", "trainable": true, "name": "activation_19"}, "name": "activation_19", "class_name": "Activation", "inbound_nodes": [[["batch_normalization_19", 0, 0, {}]]]}, {"config": {"dilation_rate": [1, 1], "strides": [1, 1], "use_bias": true, "kernel_initializer": {"config": {"mode": "fan_avg", "distribution": "uniform", "scale": 1.0, "seed": null}, "class_name": "VarianceScaling"}, "name": "conv2d_20", "kernel_constraint": null, "kernel_regularizer": null, "trainable": true, "data_format": "channels_last", "padding": "same", "filters": 128, "bias_constraint": null, "bias_initializer": {"config": {}, "class_name": "Zeros"}, "activation": "linear", "kernel_size": [3, 3], "activity_regularizer": null, "bias_regularizer": null}, "name": "conv2d_20", "class_name": "Conv2D", "inbound_nodes": [[["activation_19", 0, 0, {}]]]}, {"config": {"momentum": 0.99, "moving_mean_initializer": {"config": {}, "class_name": "Zeros"}, "epsilon": 0.001, "moving_variance_initializer": {"config": {}, "class_name": "Ones"}, "beta_initializer": {"config": {}, "class_name": "Zeros"}, "gamma_initializer": {"config": {}, "class_name": "Ones"}, "trainable": true, "center": true, "gamma_regularizer": null, "beta_constraint": null, "gamma_constraint": null, "name": "batch_normalization_20", "axis": -1, "scale": true, "beta_regularizer": null}, "name": "batch_normalization_20", "class_name": "BatchNormalization", "inbound_nodes": [[["conv2d_20", 0, 0, {}]]]}, {"config": {"trainable": true, "name": "add_7"}, "name": "add_7", "class_name": "Add", "inbound_nodes": [[["batch_normalization_20", 0, 0, {}], ["activation_18", 0, 0, {}]]]}, {"config": {"activation": "relu", "trainable": true, "name": "activation_20"}, "name": "activation_20", "class_name": "Activation", "inbound_nodes": [[["add_7", 0, 0, {}]]]}, {"config": {"dilation_rate": [1, 1], "strides": [1, 1], "use_bias": true, "kernel_initializer": {"config": {"mode": "fan_avg", "distribution": "uniform", "scale": 1.0, "seed": null}, "class_name": "VarianceScaling"}, "name": "conv2d_21", "kernel_constraint": null, "kernel_regularizer": null, "trainable": true, "data_format": "channels_last", "padding": "same", "filters": 128, "bias_constraint": null, "bias_initializer": {"config": {}, "class_name": "Zeros"}, "activation": "linear", "kernel_size": [3, 3], "activity_regularizer": null, "bias_regularizer": null}, "name": "conv2d_21", "class_name": "Conv2D", "inbound_nodes": [[["activation_20", 0, 0, {}]]]}, {"config": {"momentum": 0.99, "moving_mean_initializer": {"config": {}, "class_name": "Zeros"}, "epsilon": 0.001, "moving_variance_initializer": {"config": {}, "class_name": "Ones"}, "beta_initializer": {"config": {}, "class_name": "Zeros"}, "gamma_initializer": {"config": {}, "class_name": "Ones"}, "trainable": true, "center": true, "gamma_regularizer": null, "beta_constraint": null, "gamma_constraint": null, "name": "batch_normalization_21", "axis": -1, "scale": true, "beta_regularizer": null}, "name": "batch_normalization_21", "class_name": "BatchNormalization", "inbound_nodes": [[["conv2d_21", 0, 0, {}]]]}, {"config": {"activation": "relu", "trainable": true, "name": "activation_21"}, "name": "activation_21", "class_name": "Activation", "inbound_nodes": [[["batch_normalization_21", 0, 0, {}]]]}, {"config": {"dilation_rate": [1, 1], "strides": [1, 1], "use_bias": true, "kernel_initializer": {"config": {"mode": "fan_avg", "distribution": "uniform", "scale": 1.0, "seed": null}, "class_name": "VarianceScaling"}, "name": "conv2d_22", "kernel_constraint": null, "kernel_regularizer": null, "trainable": true, "data_format": "channels_last", "padding": "same", "filters": 128, "bias_constraint": null, "bias_initializer": {"config": {}, "class_name": "Zeros"}, "activation": "linear", "kernel_size": [3, 3], "activity_regularizer": null, "bias_regularizer": null}, "name": "conv2d_22", "class_name": "Conv2D", "inbound_nodes": [[["activation_21", 0, 0, {}]]]}, {"config": {"momentum": 0.99, "moving_mean_initializer": {"config": {}, "class_name": "Zeros"}, "epsilon": 0.001, "moving_variance_initializer": {"config": {}, "class_name": "Ones"}, "beta_initializer": {"config": {}, "class_name": "Zeros"}, "gamma_initializer": {"config": {}, "class_name": "Ones"}, "trainable": true, "center": true, "gamma_regularizer": null, "beta_constraint": null, "gamma_constraint": null, "name": "batch_normalization_22", "axis": -1, "scale": true, "beta_regularizer": null}, "name": "batch_normalization_22", "class_name": "BatchNormalization", "inbound_nodes": [[["conv2d_22", 0, 0, {}]]]}, {"config": {"trainable": true, "name": "add_8"}, "name": "add_8", "class_name": "Add", "inbound_nodes": [[["batch_normalization_22", 0, 0, {}], ["activation_20", 0, 0, {}]]]}, {"config": {"activation": "relu", "trainable": true, "name": "activation_22"}, "name": "activation_22", "class_name": "Activation", "inbound_nodes": [[["add_8", 0, 0, {}]]]}, {"config": {"dilation_rate": [1, 1], "strides": [1, 1], "use_bias": true, "kernel_initializer": {"config": {"mode": "fan_avg", "distribution": "uniform", "scale": 1.0, "seed": null}, "class_name": "VarianceScaling"}, "name": "conv2d_23", "kernel_constraint": null, "kernel_regularizer": null, "trainable": true, "data_format": "channels_last", "padding": "same", "filters": 128, "bias_constraint": null, "bias_initializer": {"config": {}, "class_name": "Zeros"}, "activation": "linear", "kernel_size": [3, 3], "activity_regularizer": null, "bias_regularizer": null}, "name": "conv2d_23", "class_name": "Conv2D", "inbound_nodes": [[["activation_22", 0, 0, {}]]]}, {"config": {"momentum": 0.99, "moving_mean_initializer": {"config": {}, "class_name": "Zeros"}, "epsilon": 0.001, "moving_variance_initializer": {"config": {}, "class_name": "Ones"}, "beta_initializer": {"config": {}, "class_name": "Zeros"}, "gamma_initializer": {"config": {}, "class_name": "Ones"}, "trainable": true, "center": true, "gamma_regularizer": null, "beta_constraint": null, "gamma_constraint": null, "name": "batch_normalization_23", "axis": -1, "scale": true, "beta_regularizer": null}, "name": "batch_normalization_23", "class_name": "BatchNormalization", "inbound_nodes": [[["conv2d_23", 0, 0, {}]]]}, {"config": {"activation": "relu", "trainable": true, "name": "activation_23"}, "name": "activation_23", "class_name": "Activation", "inbound_nodes": [[["batch_normalization_23", 0, 0, {}]]]}, {"config": {"dilation_rate": [1, 1], "strides": [1, 1], "use_bias": true, "kernel_initializer": {"config": {"mode": "fan_avg", "distribution": "uniform", "scale": 1.0, "seed": null}, "class_name": "VarianceScaling"}, "name": "conv2d_24", "kernel_constraint": null, "kernel_regularizer": null, "trainable": true, "data_format": "channels_last", "padding": "same", "filters": 128, "bias_constraint": null, "bias_initializer": {"config": {}, "class_name": "Zeros"}, "activation": "linear", "kernel_size": [3, 3], "activity_regularizer": null, "bias_regularizer": null}, "name": "conv2d_24", "class_name": "Conv2D", "inbound_nodes": [[["activation_23", 0, 0, {}]]]}, {"config": {"momentum": 0.99, "moving_mean_initializer": {"config": {}, "class_name": "Zeros"}, "epsilon": 0.001, "moving_variance_initializer": {"config": {}, "class_name": "Ones"}, "beta_initializer": {"config": {}, "class_name": "Zeros"}, "gamma_initializer": {"config": {}, "class_name": "Ones"}, "trainable": true, "center": true, "gamma_regularizer": null, "beta_constraint": null, "gamma_constraint": null, "name": "batch_normalization_24", "axis": -1, "scale": true, "beta_regularizer": null}, "name": "batch_normalization_24", "class_name": "BatchNormalization", "inbound_nodes": [[["conv2d_24", 0, 0, {}]]]}, {"config": {"trainable": true, "name": "add_9"}, "name": "add_9", "class_name": "Add", "inbound_nodes": [[["batch_normalization_24", 0, 0, {}], ["activation_22", 0, 0, {}]]]}, {"config": {"activation": "relu", "trainable": true, "name": "activation_24"}, "name": "activation_24", "class_name": "Activation", "inbound_nodes": [[["add_9", 0, 0, {}]]]}, {"config": {"dilation_rate": [1, 1], "strides": [1, 1], "use_bias": true, "kernel_initializer": {"config": {"mode": "fan_avg", "distribution": "uniform", "scale": 1.0, "seed": null}, "class_name": "VarianceScaling"}, "name": "conv2d_25", "kernel_constraint": null, "kernel_regularizer": null, "trainable": true, "data_format": "channels_last", "padding": "same", "filters": 2, "bias_constraint": null, "bias_initializer": {"config": {}, "class_name": "Zeros"}, "activation": "softmax", "kernel_size": [3, 3], "activity_regularizer": null, "bias_regularizer": null}, "name": "conv2d_25", "class_name": "Conv2D", "inbound_nodes": [[["activation_24", 0, 0, {}]]]}, {"config": {"dilation_rate": [1, 1], "strides": [1, 1], "use_bias": true, "kernel_initializer": {"config": {"mode": "fan_avg", "distribution": "uniform", "scale": 1.0, "seed": null}, "class_name": "VarianceScaling"}, "name": "conv2d_26", "kernel_constraint": null, "kernel_regularizer": null, "trainable": true, "data_format": "channels_last", "padding": "same", "filters": 6, "bias_constraint": null, "bias_initializer": {"config": {}, "class_name": "Zeros"}, "activation": "linear", "kernel_size": [3, 3], "activity_regularizer": null, "bias_regularizer": null}, "name": "conv2d_26", "class_name": "Conv2D", "inbound_nodes": [[["activation_24", 0, 0, {}]]]}, {"config": {"axis": 3, "trainable": true, "name": "concatenate_1"}, "name": "concatenate_1", "class_name": "Concatenate", "inbound_nodes": [[["conv2d_25", 0, 0, {}], ["conv2d_26", 0, 0, {}]]]}], "input_layers": [["input", 0, 0]], "name": "model_1"}, "class_name": "Model", "keras_version": "2.2.4"}